…
Num GPUs: 1
0
NVIDIA GeForce RTX 3070 Ti
True
Files already downloaded and verified
Files already downloaded and verified
Number of training examples: 50000
Number of testing examples: 10000
========================================================================================================================
Layer (type (var_name))                  Input Shape          Output Shape         Param #              Trainable
========================================================================================================================
SqueezeNet (SqueezeNet)                  [128, 3, 224, 224]   [128, 490]           --                   True
├─Conv2d (conv1)                         [128, 3, 224, 224]   [128, 96, 224, 224]  2,688                True
├─BatchNorm2d (bn1)                      [128, 96, 224, 224]  [128, 96, 224, 224]  192                  True
├─ReLU (relu)                            [128, 96, 224, 224]  [128, 96, 224, 224]  --                   --
├─MaxPool2d (maxpool1)                   [128, 96, 224, 224]  [128, 96, 112, 112]  --                   --
├─fire (fire2)                           [128, 96, 112, 112]  [128, 128, 112, 112] --                   True
│    └─Conv2d (conv1)                    [128, 96, 112, 112]  [128, 16, 112, 112]  1,552                True
│    └─BatchNorm2d (bn1)                 [128, 16, 112, 112]  [128, 16, 112, 112]  32                   True
│    └─ReLU (relu1)                      [128, 16, 112, 112]  [128, 16, 112, 112]  --                   --
│    └─Conv2d (conv2)                    [128, 16, 112, 112]  [128, 64, 112, 112]  1,088                True
│    └─BatchNorm2d (bn2)                 [128, 64, 112, 112]  [128, 64, 112, 112]  128                  True
│    └─Conv2d (conv3)                    [128, 16, 112, 112]  [128, 64, 112, 112]  9,280                True
│    └─BatchNorm2d (bn3)                 [128, 64, 112, 112]  [128, 64, 112, 112]  128                  True
│    └─ReLU (relu2)                      [128, 128, 112, 112] [128, 128, 112, 112] --                   --
├─fire (fire3)                           [128, 128, 112, 112] [128, 128, 112, 112] --                   True
│    └─Conv2d (conv1)                    [128, 128, 112, 112] [128, 16, 112, 112]  2,064                True
│    └─BatchNorm2d (bn1)                 [128, 16, 112, 112]  [128, 16, 112, 112]  32                   True
│    └─ReLU (relu1)                      [128, 16, 112, 112]  [128, 16, 112, 112]  --                   --
│    └─Conv2d (conv2)                    [128, 16, 112, 112]  [128, 64, 112, 112]  1,088                True
│    └─BatchNorm2d (bn2)                 [128, 64, 112, 112]  [128, 64, 112, 112]  128                  True
│    └─Conv2d (conv3)                    [128, 16, 112, 112]  [128, 64, 112, 112]  9,280                True
│    └─BatchNorm2d (bn3)                 [128, 64, 112, 112]  [128, 64, 112, 112]  128                  True
│    └─ReLU (relu2)                      [128, 128, 112, 112] [128, 128, 112, 112] --                   --
├─fire (fire4)                           [128, 128, 112, 112] [128, 256, 112, 112] --                   True
│    └─Conv2d (conv1)                    [128, 128, 112, 112] [128, 32, 112, 112]  4,128                True
│    └─BatchNorm2d (bn1)                 [128, 32, 112, 112]  [128, 32, 112, 112]  64                   True
│    └─ReLU (relu1)                      [128, 32, 112, 112]  [128, 32, 112, 112]  --                   --
│    └─Conv2d (conv2)                    [128, 32, 112, 112]  [128, 128, 112, 112] 4,224                True
│    └─BatchNorm2d (bn2)                 [128, 128, 112, 112] [128, 128, 112, 112] 256                  True
│    └─Conv2d (conv3)                    [128, 32, 112, 112]  [128, 128, 112, 112] 36,992               True
│    └─BatchNorm2d (bn3)                 [128, 128, 112, 112] [128, 128, 112, 112] 256                  True
│    └─ReLU (relu2)                      [128, 256, 112, 112] [128, 256, 112, 112] --                   --
├─MaxPool2d (maxpool2)                   [128, 256, 112, 112] [128, 256, 56, 56]   --                   --
├─fire (fire5)                           [128, 256, 56, 56]   [128, 256, 56, 56]   --                   True
│    └─Conv2d (conv1)                    [128, 256, 56, 56]   [128, 32, 56, 56]    8,224                True
│    └─BatchNorm2d (bn1)                 [128, 32, 56, 56]    [128, 32, 56, 56]    64                   True
│    └─ReLU (relu1)                      [128, 32, 56, 56]    [128, 32, 56, 56]    --                   --
│    └─Conv2d (conv2)                    [128, 32, 56, 56]    [128, 128, 56, 56]   4,224                True
│    └─BatchNorm2d (bn2)                 [128, 128, 56, 56]   [128, 128, 56, 56]   256                  True
│    └─Conv2d (conv3)                    [128, 32, 56, 56]    [128, 128, 56, 56]   36,992               True
│    └─BatchNorm2d (bn3)                 [128, 128, 56, 56]   [128, 128, 56, 56]   256                  True
│    └─ReLU (relu2)                      [128, 256, 56, 56]   [128, 256, 56, 56]   --                   --
├─fire (fire6)                           [128, 256, 56, 56]   [128, 384, 56, 56]   --                   True
│    └─Conv2d (conv1)                    [128, 256, 56, 56]   [128, 48, 56, 56]    12,336               True
│    └─BatchNorm2d (bn1)                 [128, 48, 56, 56]    [128, 48, 56, 56]    96                   True
│    └─ReLU (relu1)                      [128, 48, 56, 56]    [128, 48, 56, 56]    --                   --
│    └─Conv2d (conv2)                    [128, 48, 56, 56]    [128, 192, 56, 56]   9,408                True
│    └─BatchNorm2d (bn2)                 [128, 192, 56, 56]   [128, 192, 56, 56]   384                  True
│    └─Conv2d (conv3)                    [128, 48, 56, 56]    [128, 192, 56, 56]   83,136               True
│    └─BatchNorm2d (bn3)                 [128, 192, 56, 56]   [128, 192, 56, 56]   384                  True
│    └─ReLU (relu2)                      [128, 384, 56, 56]   [128, 384, 56, 56]   --                   --
├─fire (fire7)                           [128, 384, 56, 56]   [128, 384, 56, 56]   --                   True
│    └─Conv2d (conv1)                    [128, 384, 56, 56]   [128, 48, 56, 56]    18,480               True
│    └─BatchNorm2d (bn1)                 [128, 48, 56, 56]    [128, 48, 56, 56]    96                   True
│    └─ReLU (relu1)                      [128, 48, 56, 56]    [128, 48, 56, 56]    --                   --
│    └─Conv2d (conv2)                    [128, 48, 56, 56]    [128, 192, 56, 56]   9,408                True
│    └─BatchNorm2d (bn2)                 [128, 192, 56, 56]   [128, 192, 56, 56]   384                  True
│    └─Conv2d (conv3)                    [128, 48, 56, 56]    [128, 192, 56, 56]   83,136               True
│    └─BatchNorm2d (bn3)                 [128, 192, 56, 56]   [128, 192, 56, 56]   384                  True
│    └─ReLU (relu2)                      [128, 384, 56, 56]   [128, 384, 56, 56]   --                   --
├─fire (fire8)                           [128, 384, 56, 56]   [128, 512, 56, 56]   --                   True
│    └─Conv2d (conv1)                    [128, 384, 56, 56]   [128, 64, 56, 56]    24,640               True
│    └─BatchNorm2d (bn1)                 [128, 64, 56, 56]    [128, 64, 56, 56]    128                  True
│    └─ReLU (relu1)                      [128, 64, 56, 56]    [128, 64, 56, 56]    --                   --
│    └─Conv2d (conv2)                    [128, 64, 56, 56]    [128, 256, 56, 56]   16,640               True
│    └─BatchNorm2d (bn2)                 [128, 256, 56, 56]   [128, 256, 56, 56]   512                  True
│    └─Conv2d (conv3)                    [128, 64, 56, 56]    [128, 256, 56, 56]   147,712              True
│    └─BatchNorm2d (bn3)                 [128, 256, 56, 56]   [128, 256, 56, 56]   512                  True
│    └─ReLU (relu2)                      [128, 512, 56, 56]   [128, 512, 56, 56]   --                   --
├─MaxPool2d (maxpool3)                   [128, 512, 56, 56]   [128, 512, 28, 28]   --                   --
├─fire (fire9)                           [128, 512, 28, 28]   [128, 512, 28, 28]   --                   True
│    └─Conv2d (conv1)                    [128, 512, 28, 28]   [128, 64, 28, 28]    32,832               True
│    └─BatchNorm2d (bn1)                 [128, 64, 28, 28]    [128, 64, 28, 28]    128                  True
│    └─ReLU (relu1)                      [128, 64, 28, 28]    [128, 64, 28, 28]    --                   --
│    └─Conv2d (conv2)                    [128, 64, 28, 28]    [128, 256, 28, 28]   16,640               True
│    └─BatchNorm2d (bn2)                 [128, 256, 28, 28]   [128, 256, 28, 28]   512                  True
│    └─Conv2d (conv3)                    [128, 64, 28, 28]    [128, 256, 28, 28]   147,712              True
│    └─BatchNorm2d (bn3)                 [128, 256, 28, 28]   [128, 256, 28, 28]   512                  True
│    └─ReLU (relu2)                      [128, 512, 28, 28]   [128, 512, 28, 28]   --                   --
├─Conv2d (conv2)                         [128, 512, 28, 28]   [128, 10, 28, 28]    5,130                True
├─AvgPool2d (avg_pool)                   [128, 10, 28, 28]    [128, 10, 7, 7]      --                   --
========================================================================================================================
Total params: 734,986
Trainable params: 734,986
Non-trainable params: 0
Total mult-adds (Units.GIGABYTES): 331.85
========================================================================================================================
Input size (MB): 77.07
…
